…
ation. * It is common to increase the number of features at the same time, to maintain the same amount of computation\n\ndef conv(ni, nf, ks=3, act=True):\n    res = nn.Conv2d(ni, nf, stride=2, kernel_size=ks, padding=ks//2)\n    if act: res = nn.Sequential(res, nn.ReLU())\n    return res\nsimple_cnn = sequential(\n    conv(1 ,4),            #14x14\n    conv(4 ,8),            #7x7\n    conv(8 ,16),           #4x4\n    conv(16,32),           #2x2\n    conv(32,2, act=False), #1x1\n    # Flatten output to a single dimension\n    Flatten(),\n)\n\nsimple_cnn\nSequential(\n  (0): Sequential(\n    (0): Conv2d(1, 4, kernel_size=(3, 3), stride=(2, 2), padding=(1, 1))\n    (1): ReLU()\n  )\n  (1): Sequential(\n    (0): Conv2d(4, 8, kernel_size=(3, 3), stride=(2, 2), padding=(1, 1))\n    (1): ReLU()\n  )\n  (2): Sequential(\n    (0): Conv2d(8, 16, kernel_size=(3, 3), stride=(2, 2), padding=(1, 1))\n    (1): ReLU()\n  )\n  (3): Sequential(\n    (0): Conv2d(16, 32, kernel_size=(3, 3), stride=(2, 2), padding=(1, 1))\n    (1): ReLU()\n  )\n  (4): Conv2d(32, 2, kernel_size=(3, 3), stride=(2, 2), padding=(1, 1))\n  (5): Flatten(full=False)\n)\n\nsimple_cnn(xb).shape\ntorch.Size([64, 2])\n\nlearn = Learner(dls, simple_cnn, loss_func=F.cross_entropy, metrics=accuracy)\nlearn.summary()\nSequential (Input shape: 64 x 1 x 28 x 28)\n============================================================================\nLayer (type)         Output Shape         Par
…
(input)\n        &gt;&gt;&gt; # target output size of 10x7\n        &gt;&gt;&gt; m = nn.AdaptiveAvgPool2d((None, 7))\n        &gt;&gt;&gt; input = torch.randn(1, 64, 10, 9)\n        &gt;&gt;&gt; output = m(input)\n\n    \"\"\"\n\n    output_size: _size_2_opt_t\n\n    def forward(self, input: Tensor) -&gt; Tensor:\n        return F.adaptive_avg_pool2d(input, self.output_size)\n\ndef get_learner(m):\n    return Learner(dls, m, loss_func=nn.CrossEntropyLoss(), metrics=accuracy\n                  ).to_fp16()\n\nlearn = get_learner(get_model())\n\nlearn.model\nSequential(\n  (0): ConvLayer(\n    (0): Conv2d(3, 16, kernel_size=(3, 3), stride=(2, 2), padding=(1, 1), bias=False)\n    (1): BatchNorm2d(16, eps=1e-05, momentum=0.1, affine=True, track_running_stats=True)\n    (2): ReLU()\n  )\n  (1): ConvLayer(\n    (0): Conv2d(16, 32, kernel_size=(3, 3), stride=(2, 2), padding=(1, 1), bias=False)\n    (1): BatchNorm2d(32, eps=1e-05, momentum=0.1, affine=True, track_running_stats=True)\n    (2): ReLU()\n  )\n  (2): ConvLayer(\n    (0): Conv2d(32, 64, kernel_size=(3, 3), stride=(2, 2), padding=(1, 1), bias=False)\n    (1): BatchNorm2d(64, eps=1e-05, momentum=0.1, affine=True, track_running_stats=True)\n    (2): ReLU()\n  )\n  (3): ConvLayer(\n    (0): Conv2d(64, 128, kernel_size=(3, 3), stride=(2, 2), padding=(1, 1), bias=False)\n    (1): BatchNorm2d(128, eps=1e-05, momentum=0.1, affine=True, track_running_stats=True)\n    (2): ReLU()\n  )\n  (4): ConvLayer(\n    (0): Conv2d(128, 256, kernel_size=(3, 3), stride=(2, 2), padding=(1, 1), bias=False)\n    (1): BatchNorm2d(256, eps=1e-05, momentum=0.1, affine=True, track_running_stats=True)\n    (2): ReLU()\n  )\n  (5): AdaptiveAvgPool2d(output_size=1)\n  (6): Flatten(full=False)\n  (7): Linear(in_features=256, out_features=10, bias=True)\n)\n\nlearn.lr_find()\nSuggestedLRs(valley=0.0008317637839354575)\n\n\n\n\n\n\nlearn.fit_one_cycle(5, 3e-3)\n\n\n\n\n\n\nepoch\n\n\ntrain_loss\n\n\nvalid_loss\n\n\naccuracy\n\n\ntime\n\n\n\n\n\n\n0\n\n\n1.885349\n\n\n2.287517\n\n\n0.341401\n\n\n00:03\n\n\n\n\n1\n\n\n1.525377\n\n\n2.245459\n\n\n0.395159\n\n\n00:03\n\n\n\n\n2\n\n\n1.290083\n\n\n1.217583\n
…
 self.idconv = noop if ni==nf else ConvLayer(ni, nf, 1, act_cls=None)\n        self.pool = noop if stride==1 else nn.AvgPool2d(2, ceil_mode=True)\n\n    def forward(self, x):\n        return F.relu(self.convs(x) + self.idconv(self.pool(x)))\n\nnoop\n&lt;function fastai.imports.noop(x=None, *args, **kwargs)&gt;\n\nprint_source(noop)\ndef noop (x=None, *args, **kwargs):\n    \"Do nothing\"\n    return x\n\ndef block(ni,nf): return ResBlock(ni, nf, stride=2)\nlearn = get_learner(get_model())\n\nlearn.model\nSequential(\n  (0): ResBlock(\n    (convs): Sequential(\n      (0): ConvLayer(\n        (0): Conv2d(3, 16, kernel_size=(3, 3), stride=(2, 2), padding=(1, 1), bias=False)\n        (1): BatchNorm2d(16, eps=1e-05, momentum=0.1, affine=True, track_running_stats=True)\n        (2): ReLU()\n      )\n      (1): ConvLayer(\n        (0): Conv2d(16, 16, kernel_size=(3, 3), stride=(1, 1), padding=(1, 1), bias=False)\n        (1): BatchNorm2d(16, eps=1e-05, momentum=0.1, affine=True, track_running_stats=True)\n      )\n    )\n    (idconv): ConvLayer(\n      (0): Conv2d(3, 16, kernel_size=(1, 1), stride=(1, 1), bias=False)\n      (1): BatchNorm2d(16, eps=1e-05, momentum=0.1, affine=True, track_running_stats=True)\n    )\n    (pool): AvgPool2d(kernel_size=2, stride=2, padding=0)\n  )\n  (1): ResBlock(\n    (convs): Sequential(\n      (0): ConvLayer(\n        (0): Conv2d(16, 32, kernel_size=(3, 3), stride=(2, 2), padding=(1, 1), bias=False)\n        (1): BatchNorm2d(32, eps=1e-05, momentum=0.1, affine=True, track_running_stats=True)\n        (2): ReLU()\n      )\n      (1): ConvLayer(\n        (0): Conv2d(32, 32, kernel_size=(3, 3), stride=(1, 1), padding=(1, 1), bias=False)\n        (1): BatchNorm2d(32, eps=1e-05, momentum=0.1, affine=True, track_running_stats=True)\n      )\n    )\n    (idconv): ConvLayer(\n      (0): Conv2d(16, 32, kernel_size=(1, 1), stride=(1, 1), bias=False)\n      (1): BatchNorm2d(32, eps=1e-05, momentum=0.1, affine=True, track_running_stats=True)\n    )\n    (pool): AvgPool2d(kernel_size=2, stride=2, padding=0)\n  )\n  (2): ResBlock(\n    (convs): Sequential(\n      (0): ConvLayer(\n        (0): Conv2d(32, 64, kernel_size=(3, 3), stride=(2, 2), padding=(1, 1), bias=False)\n        (1): BatchNorm2d(64, eps=1e-05, momentum=0.1, affine=True, track_running_stats=True)\n        (2): ReLU()\n      )\n      (1): ConvLayer(\n        (0): Conv2d(64, 64, kernel_size=(3, 3), stride=(1, 1), padding=(1, 1), bias=False)\n        (1): BatchNorm2d(64, eps=1e-05, momentum=0.1, affine=True, track_running_stats=True)\n      )\n    )\n    (idconv): ConvLayer(\n      (0): Conv2d(32, 64, kernel_size=(1, 1), stride=(1, 1), bias=False)\n      (1): BatchNorm2d(64, eps=1e-05, momentum=0.1, affine=True, track_running_stats=True)\n    )\n    (pool): AvgPool2d(kernel_size=2, stride=2, padding=0)\n  )\n  (3): ResBlock(\n    (convs): Sequential(\n      (0): ConvLayer(\n        (0): Conv2d(64, 128, kernel_size=(3, 3), stride=(2, 2), padding=(1, 1), bias=False)\n        (1): BatchNorm2d(128, eps=1e-05, momentum=0.1, affine=True, track_running_stats=True)\n        (2): ReLU()\n      )\n      (1): ConvLayer(\n        (0): Conv2d(128, 128, kernel_size=(3, 3), stride=(1, 1), padding=(1, 1), bias=False)\n        (1): BatchNorm2d(128, eps=1e-05, momentum=0.1, affine=True, track_running_stats=True)\n      )\n    )\n    (idconv): ConvLayer(\n      (0): Conv2d(64, 128, kernel_size=(1, 1), stride=(1, 1), bias=False)\n      (1): BatchNorm2d(128, eps=1e-05, momentum=0.1, affine=True, track_running_stats=True)\n    )\n    (pool): AvgPool2d(kernel_size=2, stride=2, padding=0)\n  )\n  (4): ResBlock(\n    (convs): Sequential(\n      (0): ConvLayer(\n        (0): Conv2d(128, 256, kernel_size=(3, 3), stride=(2, 2), padding=(1, 1), bias=False)\n        (1): BatchNorm2d(256, eps=1e-05, momentum=0.1, affine=True, track_running_stats=True)\n        (2): ReLU()\n      )\n      (1): ConvLayer(\n        (0): Conv2d(256, 256, kernel_size=(3, 3), stride=(1, 1), padding=(1, 1), bias=False)\n        (1): BatchNorm2d(256, eps=1e-05, momentum=0.1, affine=True, track_running_stats=True)\n      )\n    )\n    (idconv): ConvLayer(\n      (0): Conv2d(128, 256, kernel_size=(1, 1), stride=(1, 1), bias=False)\n      (1): BatchNorm2d(256, eps=1e-05, momentum=0.1, affine=True, track_running_stats=True)\n    )\n    (pool): AvgPool2d(kernel_size=2, stride=2, padding=0)\n  )\n  (5): AdaptiveAvgPool2d(output_size=1)\n  (6): Flatten(full=False)\n  (7): Linear(in_features=256, out_features=10, bias=True)\n)\n\nlearn.fit_one_cycle(5, 3e-3)\n\n\n\n\n\n\nepoch\n\n\ntrain_loss\n\n\nvalid_loss\n\n\naccuracy\n\n\ntime\n\n\n\n\n\n\n0\n\n\n1.975520\n\n\n1.854834\n\n\n0.346242\n\n\n00:04\n\n\n\n\n1\n\n\n1.658158\n\n\n1.478215\n\n\n0.517197\n\n\n00:04\n\n\n\n\n2\n\n\n1.377669\n\n\n1.307936\n\n\n0.585478\n\n\n00:04\n\n\n\n\n3\n\n\n1.162053\n\n\n1.106804\n\n\n0.642
…
erent structure than the main body of the CNN\nthe vast majority of computation in a deep convolutional network occurs in the early layers\n\nwe should keep the early layers as fast and simple as possible\n\nthe vast majority of parameters are in the last layers\na ResNet block takes more computation than a plain convolutional block\n\n\ndef _resnet_stem(*sizes):\n    return [\n        ConvLayer(sizes[i], sizes[i+1], 3, stride = 2 if i==0 else 1)\n            for i in range(len(sizes)-1)\n    ] + [nn.MaxPool2d(kernel_size=3, stride=2, padding=1)]\n\n_resnet_stem(3,32,32,64)\n[ConvLayer(\n   (0): Conv2d(3, 32, kernel_size=(3, 3), stride=(2, 2), padding=(1, 1), bias=False)\n   (1): BatchNorm2d(32, eps=1e-05, momentum=0.1, affine=True, track_running_stats=True)\n   (2): ReLU()\n ),\n ConvLayer(\n   (0): Conv2d(32, 32, kernel_size=(3, 3), stride=(1, 1), padding=(1, 1), bias=False)\n   (1): BatchNorm2d(32, eps=1e-05, momentum=0.1, affine=True, track_running_stats=True)\n   (2): ReLU()\n ),\n ConvLayer(\n   (0): Conv2d(32, 64, kernel_size=(3, 3), stride=(1, 1), padding=(1, 1), bias=False)\n   (1): BatchNorm2d(64, eps=1e-05, momentum=0.1, affine=True, track_running_stats=True)\n   (2): ReLU()\n ),\n MaxPool2d(kernel_size=3, stride=2, padding=1, dilation=1, ceil_mode=False)]\n\nclass ResNet(nn.Sequential):\n    def __init__(self, n_out, layers, expansion=1):\n        stem = _resnet_stem(3,32,32,64)\n        self.block_szs = [64, 64, 128, 256, 512]\n        for i in range(1,5): self.block_szs[i] *= expans
…
to optimize the more layers\ndeeper models require fewer parameters\nwe can use smaller matrices with more layers\nwe can train the model more quickly using less memory\ntypically perform better\n\n\ndls = ImageDataLoaders.from_folder(path)\nlearn = cnn_learner(dls, resnet18, pretrained=False,\n                    loss_func=F.cross_entropy, metrics=accuracy)\nlearn.fit_one_cycle(1, 0.1)\n\n\n\n\n\n\nepoch\n\n\ntrain_loss\n\n\nvalid_loss\n\n\naccuracy\n\n\ntime\n\n\n\n\n\n\n0\n\n\n0.066122\n\n\n0.008277\n\n\n0.997547\n\n\n00:04\n\n\n\n\n\n\n\nlearn.model\nSequential(\n  (0): Sequential(\n    (0): Conv2d(3, 64, kernel_size=(7, 7), stride=(2, 2), padding=(3, 3), bias=False)\n    (1): BatchNorm2d(64, eps=1e-05, momentum=0.1, affine=True, track_running_stats=True)\n    (2): ReLU(inplace=True)\n    (3): MaxPool2d(kernel_size=3, stride=2, padding=1, dilation=1, ceil_mode=False)\n    (4): Sequential(\n      (0): BasicBlock(\n        (conv1): Conv2d(64, 64, kernel_size=(3, 3), stride=(1, 1), padding=(1, 1), bias=False)\n        (bn1): BatchNorm2d(64, eps=1e-05, momentum=0.1, affine=True, track_running_stats=True)\n        (relu): ReLU(inplace=True)\n        (conv2): Conv2d(64, 64, kernel_size=(3, 3), stride=(1, 1), padding=(1, 1), bias=False)\n        (bn2): BatchNorm2d(64, eps=1e-05, momentum=0.1, affine=True, track_running_stats=True)\n      )\n      (1): BasicBlock(\n        (conv1): Conv2d(64, 64, kernel_size=(3, 3), stride=(1, 1), padding=(1, 1), bias=False)\n        (bn1): BatchNorm2d(64, eps=1e-05, momentum=0.1, affine=True, track_running_stats=True)\n        (relu): ReLU(inplace=True)\n        (conv2): Conv2d(64, 64, kernel_size=(3, 3), stride=(1, 1), padding=(1, 1), bias=False)\n        (bn2): BatchNorm2d(64, eps=1e-05, momentum=0.1, affine=True, track_running_stats=True)\n      )\n    )\n    (5): Sequential(\n      (0): BasicBlock(\n        (conv1): Conv2d(64, 128, kernel_size=(3, 3), stride=(2, 2), padding=(1, 1), bias=False)\n        (bn1): BatchNorm2d(128, eps=1e-05, momentum=0.1, affine=True, track_running_stats=True)\n        (relu): ReLU(inplace=True)\n        (conv2): Conv2d(128, 128, kernel_size=(3, 3), stride=(1, 1), padding=(1, 1), bias=False)\n        (bn2): BatchNorm2d(128, eps=1e-05, momentum=0.1, affine=True, track_running_stats=True)\n        (downsample): Sequential(\n          (0): Conv2d(64, 128, kernel_size=(1, 1), stride=(2, 2), bias=False)\n          (1): BatchNorm2d(128, eps=1e-05, momentum=0.1, affine=True, track_running_stats=True)\n        )\n      )\n      (1): BasicBlock(\n        (conv1): Conv2d(128, 128, kernel_size=(3, 3), stride=(1, 1), padding=(1, 1), bias=False)\n        (bn1): BatchNorm2d(128, eps=1e-05, momentum=0.1, affine=True, track_running_stats=True)\n        (relu): ReLU(inplace=True)\n        (conv2): Conv2d(128, 128, kernel_size=(3, 3), stride=(1, 1), padding=(1, 1), bias=False)\n        (bn2): BatchNorm2d(128, eps=1e-05, momentum=0.1, affine=True, track_running_stats=True)\n      )\n    )\n    (6): Sequential(\n      (0): BasicBlock(\n        (conv1): Conv2d(128, 256, kernel_size=(3, 3), stride=(2, 2), padding=(1, 1), bias=False)\n        (bn1): BatchNorm2d(256, eps=1e-05, momentum=0.1, affine=True, track_running_stats=True)\n        (relu): ReLU(inplace=True)\n        (conv2): Conv2d(256, 256, kernel_size=(3, 3), stride=(1, 1), padding=(1, 1), bias=False)\n        (bn2): BatchNorm2d(256, eps=1e-05, momentum=0.1, affine=True, track_running_stats=True)\n        (downsample): Sequential(\n          (0): Conv2d(128, 256, kernel_size=(1, 1), stride=(2, 2), bias=False)\n          (1): BatchNorm2d(256, eps=1e-05, momentum=0.1, affine=True, track_running_stats=True)\n        )\n      )\n      (1): BasicBlock(\n        (conv1): Conv2d(256, 256, kernel_size=(3, 3), stride=(1, 1), padding=(1, 1), bias=False)\n        (bn1): BatchNorm2d(256, eps=1e-05, momentum=0.1, affine=True, track_running_stats=True)\n        (relu): ReLU(inplace=True)\n        (conv2): Conv2d(256, 256, kernel_size=(3, 3), stride=(1, 1), padding=(1, 1), bias=False)\n        (bn2): BatchNorm2d(256, eps=1e-05, momentum=0.1, affine=True, track_running_stats=True)\n      )\n    )\n    (7): Sequential(\n      (0): BasicBlock(\n        (conv1): Conv2d(256, 512, kernel_size=(3, 3), stride=(2, 2), padding=(1, 1), bias=False)\n        (bn1): BatchNorm2d(512, eps=1e-05, momentum=0.1, affine=True, track_running_stats=True)\n        (relu): ReLU(inplace=True)\n        (conv2): Conv2d(512, 512, kernel_size=(3, 3), stride=(1, 1), padding=(1, 1), bias=False)\n        (bn2): BatchNorm2d(512, eps=1e-05, momentum=0.1, affine=True, track_running_stats=True)\n        (downsample): Sequential(\n          (0): Conv2d(256, 512, kernel_size=(1, 1), stride=(2, 2), bias=False)\n          (1): BatchNorm2d(512, eps=1e-05, momentum=0.1, affine=True, track_running_stats=True)\n        )\n      )\n      (1): BasicBlock(\n        (conv1): Conv2d(512, 512, kernel_size=(3, 3), stride=(1, 1), padding=(1, 1), bias=False)\n        (bn1): BatchNorm2d(512, eps=1e-05, momentum=0.1, affine=True, track_running_stats=True)\n        (relu): ReLU(inplace=True)\n        (conv2): Conv2d(512, 512, kernel_size=(3, 3), stride=(1, 1), padding=(1, 1), bias=False)\n        (bn2): BatchNorm2d(512, eps=1e-05, momentum=0.1, affine=True, track_running_stats=True)\n      )\n    )\n  )\n  (1): Sequential(\n    (0): AdaptiveConcatPool2d(\n      (ap): AdaptiveAvgPool2d(output_size=1)\n      (mp): AdaptiveMaxPool2d(output_size=1)\n    )\n    (1): Flatten(full=False)\n    (2): BatchNorm1d(1024, eps=1e-05, momentum=0.1, affine=True, track_running_stats=True)\n    (3): Dropout(p=0.25, inplace=False)\n    (4): Linear(in_features=1024, out_features=512, bias=False)\n    (5): ReLU(inplace=True)\n    (6): BatchNorm1d(512, eps=1e-05, momentum=0.1, affine=True, track_running_stats=True)\n    (7): Dropout(p=0.5, inplace=False)\n    (8): Linear(in_features=512, out_features=2, bias=False)\n  )\n)"
  },
  {
    "objectID": "posts/fastai-book-notes/chapter-4/index.html#jargon-recap",
    "href": "posts/fastai-book-notes/chapter-4/index.html#jargon-recap",
    "title": "Notes on fastai Book Ch. 4",
    "section": "Jargon Recap",
    "text": "Jargon Recap\n\nneural networks contain two types of numbers\n\nParameters: numbers that are randoml
…
number of layers of the specified sizes\n# Add two linear layers of size 100 and 50 respectively\nlearn = collab_learner(dls, use_nn=True, y_range=(0, 5.5), layers=[100,50])\nlearn.fit_one_cycle(5, 5e-3, wd=0.1)\n\n\n\n\n\n\nepoch\n\n\ntrain_loss\n\n\nvalid_loss\n\n\ntime\n\n\n\n\n\n\n0\n\n\n0.989267\n\n\n1.016765\n\n\n00:04\n\n\n\n\n1\n\n\n0.956782\n\n\n0.913140\n\n\n00:04\n\n\n\n\n2\n\n\n0.880594\n\n\n0.879068\n\n\n00:04\n\n\n\n\n3\n\n\n0.822915\n\n\n0.852487\n\n\n00:04\n\n\n\n\n4\n\n\n0.748644\n\n\n0.858280\n\n\n00:04\n\n\n\n\n\n\n\nlearn.model\nEmbeddingNN(\n  (embeds): ModuleList(\n    (0): Embedding(944, 74)\n    (1): Embedding(1665, 102)\n  )\n  (emb_drop): Dropout(p=0.0, inplace=False)\n  (bn_cont): BatchNorm1d(0, eps=1e-05, momentum=0.1, affine=True, track_running_stats=True)\n  (layers): Sequential(\n    (0): LinBnDrop(\n      (0): Linear(in_features=176, out_features=100, bias=False)\n      (1): ReLU(inplace=True)\n      (2): BatchNorm1d(100, eps=1e-05, momentum=0.1, affine=True, track_running_stats=True)\n    )\n    (1): LinBnDrop(\n      (0): Linear(in_features=100, out_features=50, bias=False)\n      (1): ReLU(inplace=True)\n      (2): BatchNorm1d(50, eps=1e-05, momentum=0.1, affine=True, track_running_stats=True)\n    )\n    (2): LinBnDrop(\n      (0): Linear(in_features=50, out_features=1, bias=True)\n    )\n    (3): SigmoidRange(low=0, high=5.5)\n  )\n)\n\nEmbeddingNN\nfastai.collab.EmbeddingNN\n\n\nfastai EmbeddingNN\n\nhttps://docs.fast.ai/collab.html#EmbeddingNN\nCreate a neural network suitable for collaborative filtering\nA subclass of TabularModel\n\nTabularModel\nfastai.tabular.model.TabularModel\n\n\nTabularModel\n\nhttps://docs.fast.ai/tabular.model.html#TabularModel\nBasic model for tabular data"
…
_nn_final, procs_nn, cat_nn, cont_nn,\n                      splits=splits, y_names=dep_var)\n\n# Can use a large batch size for tabular data\ndls = to_nn.dataloaders(1024)\n\n# Check the min and max values of the dependent variable\ny = to_nn.train.y\ny.min(),y.max()\n(8.465899, 11.863583)\n\n# Limit output values to the range [8,12]\n# Create a neural network with layer size 500 and 250 for the two hidden layers\nlearn = tabular_learner(dls, y_range=(8,12), layers=[500,250],\n                        n_out=1, loss_func=F.mse_loss)\n\nlearn.model\nTabularModel(\n  (embeds): ModuleList(\n    (0): Embedding(73, 18)\n    (1): Embedding(7, 5)\n    (2): Embedding(3, 3)\n    (3): Embedding(75, 18)\n    (4): Embedding(5242, 194)\n    (5): Embedding(178, 29)\n    (6): Embedding(7, 5)\n    (7): Embedding(4, 3)\n    (8): Embedding(5060, 190)\n    (9): Embedding(7, 5)\n    (10): Embedding(141, 26)\n    (11): Embedding(13, 7)\n    (12): Embedding(5, 4)\n    (13): Embedding(18, 8)\n  )\n  (emb_drop): Dropout(p=0.0, inplace=False)\n  (bn_cont): BatchNorm1d(1, eps=1e-05, momentum=0.1, affine=True, track_running_stats=True)\n  (layers): Sequential(\n    (0): LinBnDrop(\n      (0): Linear(in_features=516, out_features=500, bias=False)\n      (1): ReLU(inplace=True)\n      (2): BatchNorm1d(500, eps=1e-05, momentum=0.1, affine=True, track_running_stats=True)\n    )\n    (1): LinBnDrop(\n      (0): Linear(in_features=500, out_features=250, bias=False)\n      (1): ReLU(inplace=True)\n      (2): BatchNorm1d(250, eps=1e-05, momentum=0.1, affine=True, track_running_stats=True)\n    )\n    (2): LinBnDrop(\n      (0): Linear(in_features=250, out_features=1, bias=True)\n    )\n    (3): SigmoidRange(low=8, high=12)\n  )\n)\n\nlearn.lr_find()\nSuggestedLRs(valley=0.00015848931798245758)\n\n\n\n\n\n\nlearn.fit_one_cycle(5, 1e-2)\n\n\n\n\n\n\nepoch\n\n\ntrain_loss\n\n\nvalid_loss\n\n\ntime\n\n\n\n\n\n\n0\n\n\n0.062503\n\n\n0.059019\n\n\n00:02\n\n\n\n\n1\n\n\n0.053592\n\n\n0.060456\n\n\n00:02\n\n\n\n\n2\n\n\n0.047904\n\n\n0
…
)\n        raise ValueError(\n            f\"\"\"Unrecognized configuration class {config.__class__} for this kind of AutoModel: {cls.__name__}.\n    Model type should be one of {', '.join(c.__name__ for c in cls._model_mapping.keys())}.\"\"\"\n            )\n\nmodel_ckpt = \"distilbert-base-uncased\"\n# Use a CUDA GPU if available\ndevice = torch.device(\"cuda\" if torch.cuda.is_available() else \"cpu\")\n# Instantiate a pretrained DistilBertModel\nmodel = AutoModel.from_pretrained(model_ckpt).to(device)\n\nmodel\n    DistilBertModel(\n      (embeddings): Embeddings(\n        (word_embeddings): Embedding(30522, 768, padding_idx=0)\n        (position_embeddings): Embedding(512, 768)\n        (LayerNorm): LayerNorm((768,), eps=1e-12, elementwise_affine=True)\n        (dropout): Dropout(p=0.1, inplace=False)\n      )\n      (transformer): Transformer(\n        (layer): ModuleList(\n          (0): TransformerBlock(\n            (attention): MultiHeadSelfAttention(\n              (dropout): Dropout(p=0.1, inplace=False)\n              (q_lin): Linear(in_features=768, out_features=768, bias=True)\n              (k_lin): Linear(in_features=768, out_features=768, bias=True)\n              (v_lin): Linear(in_features=768, out_features=768, bias=True)\n              (out_lin): Linear(in_features=768, out_features=768, bias=True)\n            )\n            (sa_layer_norm): LayerNorm((768,), eps=1e-12, elementwise_affine=True)\n            (ffn): FFN(\n              (dropout): Dropout(p=0.1, inplace=False)\n              (lin1): Linear(in_features=768, out_features=3072, bias=True)\n              (lin2): Linear(in_features=3072, out_features=768, bias=True)\n            )\n            (output_layer_norm): LayerNorm((768,), eps=1e-12, elementwise_affine=True)\n          )\n          (1): TransformerBlock(\n            (attention): MultiHeadSelfAttention(\n              (dropout): Dropout(p=0.1, inplace=False)\n              (q_lin): Linear(in_features=768, out_features=768, bias=True)\n              (k_lin): Linear(in_features=768, out_features=768, bias=True)\n              (v_lin): Linear(in_features=768, out_features=768, bias=True)\n              (out_lin): Linear(in_features=768, out_features=768, bias=True)\n            )\n            (sa_layer_norm): LayerNorm((768,), eps=1e-12, elementwise_affine=True)\n            (ffn): FFN(\n              (dropout): Dropout(p=0.1, inplace=False)\n              (lin1): Linear(in_features=768, out_features=3072, bias=True)\n              (lin2): Linear(in_features=3072, out_features=768, bias=True)\n            )\n            (output_layer_norm): LayerNorm((768,), eps=1e-12, elementwise_affine=True)\n          )\n          (2): TransformerBlock(\n            (attention): MultiHeadSelfAttention(\n              (dropout): Dropout(p=0.1, inplace=False)\n              (q_lin): Linear(in_features=768, out_features=768, bias=True)\n              (k_lin): Linear(in_features=768, out_features=768, bias=True)\n              (v_lin): Linear(in_features=768, out_features=768, bias=True)\n              (out_lin): Linear(in_features=768, out_features=768, bias=True)\n            )\n            (sa_layer_norm): LayerNorm((768,), eps=1e-12, elementwise_affine=True)\n            (ffn): FFN(\n              (dropout): Dropout(p=0.1, inplace=False)\n              (lin1): Linear(in_features=768, out_features=3072, bias=True)\n              (lin2): Linear(in_features=3072, out_features=768, bias=True)\n            )\n            (output_layer_norm): LayerNorm((768,), eps=1e-12, elementwise_affine=True)\n          )\n          (3): TransformerBlock(\n            (attention): MultiHeadSelfAttention(\n              (dropout): Dropout(p=0.1, inplace=False)\n              (q_lin): Linear(in_features=768, out_features=768, bias=True)\n              (k_lin): Linear(in_features=768, out_features=768, bias=True)\n              (v_lin): Linear(in_features=768, out_features=768, bias=True)\n              (out_lin): Linear(in_features=768, out_features=768, bias=True)\n            )\n            (sa_layer_norm): LayerNorm((768,), eps=1e-12, elementwise_affine=True)\n            (ffn): FFN(\n              (dropout): Dropout(p=0.1, inplace=False)\n              (lin1): Linear(in_features=768, out_features=3072, bias=True)\n              (lin2): Linear(in_features=3072, out_features=768, bias=True)\n            )\n            (output_layer_norm): LayerNorm((768,), eps=1e-12, elementwise_affine=True)\n          )\n          (4): TransformerBlock(\n            (attention): MultiHeadSelfAttention(\n              (dropout): Dropout(p=0.1, inplace=False)\n              (q_lin): Linear(in_features=768, out_features=768, bias=True)\n              (k_lin): Linear(in_features=768, out_features=768, bias=True)\n              (v_lin): Linear(in_features=768, out_features=768, bias=True)\n              (out_lin): Linear(in_features=768, out_features=768, bias=True)\n            )\n            (sa_layer_norm): LayerNorm((768,), eps=1e-12, elementwise_affine=True)\n            (ffn): FFN(\n              (dropout): Dropout(p=0.1, inplace=False)\n              (lin1): Linear(in_features=768, out_features=3072, bias=True)\n              (lin2): Linear(in_features=3072, out_features=768, bias=True)\n            )\n            (output_layer_norm): LayerNorm((768,), eps=1e-12, elementwise_affine=True)\n          )\n          (5): TransformerBlock(\n            (attention): MultiHeadSelfAttention(\n              (dropout): Dropout(p=0.1, inplace=False)\n              (q_lin): Linear(in_features=768, out_features=768, bias=True)\n              (k_lin): Linear(in_features=768, out_features=768, bias=True)\n              (v_lin): Linear(in_features=768, out_features=768, bias=True)\n              (out_lin): Linear(in_features=768, out_features=768, bias=True)\n            )\n            (sa_layer_norm): LayerNorm((768,), eps=1e-12, elementwise_affine=True)\n            (ffn): FFN(\n              (dropout): Dropout(p=0.1, inplace=False)\n              (lin1): Linear(in_features=768, out_features=3072, bias=True)\n              (lin2): Linear(in_features=3072, out_features=768, bias=True)\n            )\n            (output_layer_norm): LayerNorm((768,), eps=1e-12, elementwise_affine=True)\n          )\n        )\n      )\n    )\n\n\nExtracting the last hidden states\n\n# Encode some sample text\ntext = \"this is a test\"\ninputs = tokenizer(text, return_tensors=\"pt\")\nprint(f\"Input tensor shape: {inputs['input_ids'].size()}\")\n    Input tensor shape: torch.Size([1, 6])\n\n# Move the input tensors to the same device as the model\ninput
…
